data/processed/mlp_supervised.pth (torch, 109865 bytes, 5 tensors)

net.0.weight f4 [128, 141]
00000000: 19ea 61bd 431d 3bbd d5e2 203d 026c aa3c
00000010: f0a3 a839 b5d3 a8bc 86b2 74bd f0f5 acbb
00000020: dde6 d3bb 13ea 3f3d 0a69 27bd a3d9 3dbc
00000030: c278 87bd 9166 a43b 610f 843d 2830 70bc
00000040: e95c 45be 274d 9e3a e3dc bb3c 8987 6fbe
00000050: ce50 6dbd 8974 c0b9 f107 573b b665 b43c
00000060: 1555 fdba e58d 6a3c 5c3d 21bc 8f7b ebbc
00000070: 32b2 9f3d 529f 6f3b c018 be3d 288e 413d
00000080: fe51 34bd e831 473d e894 8a3d 923f fe3d
00000090: 6d04 9cbc c338 46bc 37fb 81bd 636b 843c
000000a0: 7a89 813d f5b5 c43c b28a 763c 56f4 823d
000000b0: ecd3 bb3d 5d77 783d 8ed6 7e3d ec1f 893b
000000c0: 26cc e13c 4094 353c ac2d 94bd 4dec 0ebd
000000d0: 3b0c a63c 8492 00bd ccc3 013c 936c 1abd
000000e0: c6cb f8bc 636f 07bd 3eb3 083c 572a 33bd
000000f0: 98c1 7a3d 44c4 003c c1d7 93bd a68f 08bd
00000100: 7079 3dbc 1339 1dbc 2583 5e3b afdc 25bd
00000110: d239 063d 34cb 67bb a0e6 2e3d 7f2a 763d
00000120: b22b 1fbd 883e 503b 7458 823d 34f8 24bd
00000130: fd29 21bd 99e0 4d3d 80a8 c83d b99a 41bc
00000140: 6db4 873c dd3b 2fbc 8b45 bb3c f3fa ad3d
00000150: 51d0 76bc d0a6 a53c 187c 193d 08a9 82bd
00000160: 522b 07bc a794 eabc 81aa a93d a854 af3d
00000170: f5f8 8f3c 1974 84bd 0168 6abd 7227 e1bc
00000180: aaa4 a63d acad 79bc a942 9abc bca5 3f3c
00000190: 383b d2bc 6ddb b43c 2701 093b 804d 22bd
000001a0: 71e6 ef3d 43f6 f03c b2f9 073c 9494 5a3d
000001b0: c43c 67bc d7ab 5cbd 046f 4bbd df84 ba3d
000001c0: 0a51 87ba d3a8 c5bd 0307 06be 4ce4 1fbd
000001d0: cba1 123c 6873 a43c f8c7 463d d91d 5b3c
000001e0: 3430 523d a51f 933c f7d9 b53d 3680 e6bc
000001f0: 44c2 f23c 814c 84bd ba9a ed3c 39e9 1c3d
00000200: 8a3c 853d 0540 2e3d 383b ac3d 9fb2 d13b
00000210: f7ce 9f3b ef85 88bc 6955 a53d 3cf4 2c3d
00000220: f656 b53d ecee b1bc 614f de3d 7d96 433d
00000230: 2308 cd3d 5917 0a3d 499d 35be 9ecb 9c3d
00000240: 3e98 6f3b 9746 073d 62ae deba 1e6f 98bc
00000250: 819d 2a3d a483 b8bd bea1 9f3c 97f5 273d
00000260: b0e4 90bc d188 7ebd 887c 013d 0a37 3c3d
00000270: 0742 613c 0046 1abc 13fd 8abd 3986 48bc
00000280: 1ff1 a1bd b8bc 83bc c7c8 9b3d 53c8 abbc
00000290: 988c a8bd f9b8 86bd 7dbf a3bd b991 10be
000002a0: 9c7a 473d 85c4 6b3d 3229 903c 678d 673d
000002b0: 132a f7b9 f839 b7bd 6af3 a73c 0fb4 8dbc
000002c0: b5c6 c03a cd57 903d 908b 983d 4bf3 8a3d
000002d0: e1ee 543d ffd3 d23c d7f9 e5bc 60df 3ebd
000002e0: 14c0 7ebd 13e2 443c 89ba 4cbd 3e1e e5bd
000002f0: 606b d5bd bcbb 9a3d 2b2b c1bd 8db2 803c
00000300: 474d 0cbe 5b53 bd3c 8fd8 a0bd 2d63 aabb
00000310: 038c 3ebd f7cf 1ebd 376a 0bbd 0f69 573d
00000320: a708 853d 0d58 a03c d952 fbbb a1a3 3abc
00000330: be04 f4bb b367 1dbd c656 68bc e98e c0bc
00000340: ef20 8ebd e84a a1bd dd66 b2bb d327 43bc
00000350: 9c1e 003d 9385 713d 79c0 8b3d 371f 933d
00000360: a9b0 99bc e664 14be ef23 d13c 4341 14be
00000370: e43b 59bd 221e babd 9899 0abe a731 5cbd
00000380: 5913 2fbe 709a 24be c21b 553c 8838 bb3c
00000390: 5f22 a7bc a7b9 963d fda7 f53c 46df 443c
000003a0: 0bda 0dbd e03f b0bd fe16 b0bc 3b89 14be
000003b0: d7b8 0d39 e0b4 3d3a a9fe a23d 62e4 61bc
000003c0: 139e 42bd f22a b33d ea04 a23b c07d e7ba
000003d0: 1552 b23d 167c ce3b ea0e e7bc 83da f73d
000003e0: fc0b 56bc 0e98 9dbd 690c 933d 1188 9e3d
000003f0: ecfd 7b3d 246b 703d f067 e6bc cc12 523b
-0.055154894 -0.045682203 0.039278824 0.020803455 0.000321656 -0.020608762 -0.059740566 -0.0052783415
-0.00646673 0.04685409 -0.040871657 -0.011587533 -0.066148296 0.0050171097 0.06448246 -0.014659919
-0.19273724 0.0012077437 0.022932475 -0.23391546 -0.05793839 -0.0003670792 0.003281113 0.022021156
-0.0019327725 0.014316057 -0.009841289 -0.02874544 0.0779766 0.0036563468 0.092820644 0.04725471
-0.044023506 0.04863158 0.06766683 0.12414469 -0.01904508 -0.012098494 -0.063467436 0.016164487
0.0632505 0.024012545 0.015047716 0.0639426 0.0917128 0.06066071 0.062216334 0.0041847136
0.027563166 0.011082709 -0.07235274 -0.034893323 0.020269504 -0.03138973 0.007920217 -0.0377012
-0.030370604 -0.03306521 0.008343516 -0.04374155 0.06121978 0.007859293 -0.07218886 -0.03334012
-0.0115645975 -0.009596127 0.003395268 -0.040493663 0.032769985 -0.0035368921 0.04270041 0.06009912
-0.03886003 0.0031775553 0.06364527 -0.040275767 -0.039346684 0.05026302 0.09797764 -0.011816674
0.016565526 -0.010695425 0.02286031 0.084951304 -0.015064315 0.020221144 0.03747186 -0.063798964
-0.008250074 -0.028635336 0.08284474 0.08561069 0.017574767 -0.06467456 -0.057228092 -0.02748463
0.08136876 -0.0152391605 -0.018830614 0.011697229 -0.025663003 0.022077287 0.0020905228 -0.03962469
0.11713875 0.029414302 0.008299278 0.05336435 -0.014113609 -0.053874817 -0.04966642 0.091073744
-0.0010323834 -0.09651341 -0.13088612 -0.03903608 0.008949707 0.020074561 0.04853055 0.013373815
0.0513155 0.017959425 0.08879464 -0.028137308 0.029633649 -0.064599045 0.029004443 0.038308356
0.065056875 0.042541523 0.084097326 0.006399467 0.004876967 -0.016665427 0.08072931 0.042225108
0.08854477 -0.021720372 0.10854984 0.04775094 0.100113176 0.033713672 -0.17735781 0.076560244
0.003655925 0.033026304 -0.0016989226 -0.018607672 0.041654114 -0.090094835 0.019486304 0.041005697
-0.017687172 -0.062142197 0.031612903 0.045950927 0.013748652 -0.009416103 -0.06786551 -0.012239032
-0.07907318 -0.016081199 0.076066546 -0.020969545 -0.08229941 -0.065782495 -0.07995508 -0.14118089
0.048700914 0.057560463 0.017597768 0.056531336 -0.0004714286 -0.089466035 0.020501811 -0.017297773
0.0014707657 0.07047997 0.074484944 0.06784686 0.051985625 0.025735853 -0.028073234 -0.046599746
-0.0621949 0.012016791 -0.04998258 -0.11187409 -0.10420871 0.07555339 -0.09432062 0.01571014
-0.13701354 0.023111036 -0.07853805 -0.005199811 -0.046520244 -0.03877255 -0.03403684 0.052590426
0.06495791 0.019573236 -0.0076697883 -0.011391551 -0.0074468544 -0.038428973 -0.014180845 -0.023505645
-0.06939875 -0.07875615 -0.005444391 -0.01191135 0.03127919 0.058965277 0.068238206 0.07183688
-0.018760996 -0.14491615 0.02552983 -0.1447802 -0.05303563 -0.09087779 -0.13535154 -0.05375829
-0.17097224 -0.16074538 0.013007106 0.022854105 -0.020402132 0.07359629 0.02998733 0.012016123
-0.03463177 -0.08605933 -0.021495339 -0.14505474 0.00013515666 0.00072367303 0.07958729 -0.013787361
-0.047514033 0.087484255 0.0049444335 -0.0017661378 0.08707062 0.0063014133 -0.028205354 0.12102225
-0.013064381 -0.07695018 0.071801014 0.07740796 0.061521456 0.058695927 -0.028125733 0.003205466

net.0.bias f4 [128]
00000000: 7984 793d 840f 733b 43d2 8ebd 8390 9e3c
00000010: 35c5 c6bc 345e 7ebc 93c7 e63c faa2 1dbd
00000020: 47c0 8cbd 47ce 8fbd 0963 0fbd 4388 93bd
00000030: 1306 56bd f423 2dbd 322b 8bbd cc02 ccbc
00000040: ed40 61bd aad2 f3ba 1f3f 85bd ceb1 3abd
00000050: a844 8abd deba 54bd 3ebb 63bd 497b 27be
00000060: ffcc 68bd 6f04 25bd 5752 a93d c38a a83b
00000070: a0a9 d6bd aa78 aabc e0c7 643d 5f8f 0dbe
00000080: 3d8a a73c b863 1dbe d7d5 f5bb f334 8a3d
00000090: 5854 67bd 1697 5cbd 57a3 8fbc f414 42bc
000000a0: dd00 463c 27dd 84bd 6057 9abd 70b1 c03d
000000b0: e9dd b63d 2ff6 143d fb58 d03b 8d74 3d3d
000000c0: 0b6f 2ebc d5a1 543c 4cfa 9dbd 49d3 903d
000000d0: 2797 c93d 87e7 793d 1ecb 00be 4643 283d
000000e0: 3e8d b03d a5f6 fe3c a50c d6bd 892b e23b
000000f0: f4be 0fbe 04f1 bcbd 36d2 54bd 6e8c 353d
00000100: 819d cdbb 94a6 16bc 2fdf 153d ac09 79bd
00000110: 534a bebd 9085 dc3c 21ed aa3c 1e25 2fbd
00000120: e039 93bc f56f f63d 95b8 393d fbfb c03b
00000130: bbbe 853c f558 0a3d 7ec4 99bd 8505 23bd
00000140: df75 08bc e7ef a9bd f205 ab3c 08a9 f83c
00000150: 9b0a 863d b8f7 f23c e769 a33d 6fab 7cbc
00000160: 48c1 84bb 1e73 b13d c605 cebc 7649 a9bc
00000170: f0d0 64bc 0b3a 0f3d 6806 efbc 210d a83c
00000180: 3b5f b73d 2e12 33bc 1fc5 563c be6f 92bb
00000190: 8e62 443d 5141 9a3c 4ff6 20bd 4830 2fbe
000001a0: f5b9 9a3d eb5f 91bd 9ef1 09bd 424c 193c
000001b0: 0acc a8bd 5b37 dbbd 5b6c 0e3c 9911 2b3c
000001c0: 196f 95bd 07d0 c5bc 0ad7 adbb 0155 423c
000001d0: 6677 e1bd 93d2 0fbd 3a69 a23d b3a2 afbc
000001e0: 6587 f0ba 48c4 52bc 04e6 d7bd b6f5 73bb
000001f0: 8c21 30bd ebd6 cfb9 26f7 6d3d d930 243d
0.06091735 0.0037088105 -0.06973698 0.019356018 -0.024263958 -0.015525389 0.028171336 -0.038485505
-0.068726115 -0.07021766 -0.035006557 -0.07203724 -0.052251887 -0.042270616 -0.06795348 -0.024903677
-0.05499356 -0.0018602211 -0.0650618 -0.045579724 -0.067513764 -0.051936023 -0.05559849 -0.16355623
-0.056836125 -0.04028743 0.08267658 0.005143495 -0.10481572 -0.02080949 0.05585468 -0.13824223
0.02045166 -0.15370071 -0.0075022983 0.067483805 -0.05647692 -0.053855024 -0.017533941 -0.011845816
0.012085167 -0.06487494 -0.07536197 0.094088435 0.08929045 0.03636759 0.0063582635 0.04625373
-0.010646592 0.012978037 -0.07713756 0.070715494 0.09843283 0.061011817 -0.12577483 0.041079782
0.0862069 0.031123469 -0.104516305 0.0069021625 -0.14037687 -0.092256576 -0.051958285 0.044323377
-0.0062748794 -0.009194989 0.036589798 -0.06080024 -0.0929152 0.026919156 0.020865025 -0.042760007
-0.017971933 0.12033073 0.045342047 0.0058894134 0.016326299 0.033776242 -0.07508181 -0.039800186
-0.008328884 -0.08297711 0.020876858 0.030354038 0.065449916 0.029659137 0.07979184 -0.015421732
-0.0040513612 0.08664535 -0.025149237 -0.020664912 -0.01396583 0.034967463 -0.02917786 0.020514073
0.08953711 -0.010929627 0.013108521 -0.004468887 0.04794555 0.018829973 -0.0392974 -0.17108262
0.07555 -0.07098373 -0.03367769 0.00935656 -0.08242042 -0.107039176 0.008692826 0.010441207
-0.07296581 -0.024147047 -0.0053051757 0.011861087 -0.110091016 -0.03511293 0.079302266 -0.021439886
-0.0018350898 -0.01286418 -0.10541919 -0.0037225313 -0.043000743 -0.00039642243 0.058097027 0.040085647

net.3.weight f4 [64, 128]
00000000: 7097 5bbd a4c9 febb 729b c43c 6913 f43c
00000010: 09e0 91bd 0dfd cf3d 6c96 38bd c0c6 81bd
00000020: 9aec 84bc 2e68 af3d 6f37 d23c 912d cbbd
00000030: be8a f5bc f649 b9bc 5a7d 87bc 1800 0abd
00000040: 095e 183c 52a2 b0bc bc9d 2a3c 9cfd b6bc
00000050: 18df 2cbc c6a1 bd3c 0d95 41bc d169 ccbc
00000060: bb3a 29bc b133 22bd 4ff1 2e3d ddd1 44bd
00000070: 0842 13bd 50b9 4abd 172e 2b3d 42b0 cc3c
00000080: 6ab8 0a3d 025c 1fbd a454 65bc 3f7a 3cbc
00000090: d05e abbd c77e f1bd c6e9 acbc bea2 7b3a
000000a0: 229e 0b3d 5861 c5bc 57ae 95bd f633 123d
000000b0: 0634 0a3d f34a 23bd 2acc 96bd 6548 24bd
000000c0: 1916 2e3d 8840 43bc 0854 92bb f957 2dbd
000000d0: d226 49bd bc24 a4bc 9f4d 7e3b 00cc e3bd
000000e0: 93bc b03c d4b6 e2bc 2d31 ca3c 33f6 86bd
000000f0: 90a9 8f3c 3c87 fabc b133 4fbd 36f2 16bd
00000100: 524b 62bd 469e fb3d 56d9 563d 1271 4ebd
00000110: 7e15 55bc 14be af3c 4f3e 4ab9 1be8 963c
00000120: d231 83bd df1b f83c 5785 9cbd 4d46 0fbd
00000130: 7de1 41bd 00c0 d3bc dc57 10bc dd15 83bd
00000140: 9490 87bc 5431 1cbd 87f8 a4bd d78b 0b3d
00000150: d5e1 a3bd 6800 2fbc 024c eb3c 31f2 0bbd
00000160: d455 cf3c 3556 843c 9a85 4e3c a8b2 b13d
00000170: ef2b 76bc ab21 6a3b 508b 98bd b05e f2bd
00000180: 5f20 9abd 8d0f 18bd 0283 9e3d 5a08 b1bd
00000190: e1cc cbbc 43bc 28bd 6224 77bd 943f 0fbd
000001a0: 7acd 98bd 50ca 6ebd 642e bf3c cbf6 99bc
000001b0: 67b3 67bc ea25 a3bd d307 ef3a 4e4e 333d
000001c0: 0208 7a3a 4d17 c3bd 2b9e 72bd 25de 6cbd
000001d0: dd06 1ebc 67cd 45bd d54d 143c 5f49 6bbd
000001e0: a59d 173d dcff 5a3d 1203 803c 8800 95bc
000001f0: aab0 59bd 8c73 063c d189 013c e1d4 edbc
00000200: 0030 e1bc ee52 2a3d 0032 95bd 68d6 f03b
00000210: 73be cdbc 3542 cc3d 281f a1bd c1bb 0f3d
00000220: 894c 4c3d 39df 00bc 61f8 593d 12dd 4dbd
00000230: 21aa ac3b 7d07 373c e115 ed3c a53f b4bd
00000240: d8a5 cebb 902f 113c 0fd5 22bd b6c3 c73c
00000250: c7a5 7fbd 31d6 513d ab77 0ebe cefd 0bbd
00000260: 1a68 9d3d 0796 41ba 73b5 e2bc 72b6 23bc
00000270: 696b 7cbd 31d5 50bd b128 a23c 3fef 88bd
00000280: f622 adbc 927a 693d d1d1 21be b1e1 9e3c
00000290: cf62 8dbd 4dc4 08be 43f6 aa3b e18f 59bc
000002a0: 461c 863c ad64 77bd e407 49bb 4691 613d
000002b0: f2ed 973c d74c 153b 99a3 2bbe f3e5 a8ba
000002c0: a831 aebd abac 8e3c 1047 be3c b1c2 6dbd
000002d0: 5b0a acbd b5b8 3a3c be93 9bbd a274 3bbe
000002e0: 8865 cabb e03f 43b8 9f8f 703d f347 3cbd
000002f0: 85cc 1d3d db12 c2bb 8067 19bd a493 afbd
00000300: 07fb 933d ee8c d93d 3b77 963c 7cb8 fcbd
00000310: ea41 1bbd 4a71 813d 9a2f e1bd dafe a33c
00000320: 5767 e93c 3b78 afbc 062d 0dbe f0d1 83bb
00000330: 9429 1fbd c14f 8abc a84d 8fbd ec02 afbd
00000340: 462e 163c 8522 29bd 60cf 9d3b c8a4 a03d
00000350: 6a7a 80bb 2212 cebd 6a93 9bbd 8ca1 c0bd
00000360: 860e 00be 6f2b ae3d d253 753d ff71 803d
00000370: 9b74 93bd 65d8 413b 3b42 8fbc 7a5f 93bd
00000380: ba2e 9dbc 7366 fabd 2a07 9c3d 1930 a2bb
00000390: b68d a0bd 9a07 13bd 6bda 563c 1514 b8bc
000003a0: 49df 6abd 2050 663d 8623 ac3d c8bc e7bc
000003b0: b9d2 01be 7d57 62bc a8ef 823d b572 cd3d
000003c0: 61af c03b a65a 3fbe 2e2d b0bd 4c3f 27be
000003d0: 7f4e e0bd 8b06 36bd 402a b5bd 0b6d 86bd
000003e0: 960d 4dbd 7de5 ab3d 773b c73d aaf7 8fbd
000003f0: 4ed3 87bc 308f 093d 720e bfbc db07 4e3c
-0.05361122 -0.0077755023 0.023999903 0.029794412 -0.071228094 0.101556875 -0.04506533 -0.06336737
-0.016226102 0.085647926 0.025661198 -0.099208005 -0.029973384 -0.022618275 -0.016539264 -0.033691496
0.0092997635 -0.021561775 0.010413583 -0.022337727 -0.010551237 0.023148429 -0.011815322 -0.024952801
-0.010328944 -0.039600078 0.0427106 -0.048051704 -0.035951644 -0.049493134 0.041792 0.02498639
0.033867277 -0.038906105 -0.013997231 -0.011503755 -0.083676934 -0.11791759 -0.021107566 0.00095991406
0.034086354 -0.024094269 -0.07308643 0.035694085 0.03374102 -0.0398664 -0.0736316 -0.040108103
0.042501543 -0.011917241 -0.0044655837 -0.042320225 -0.049109288 -0.020037048 0.003880359 -0.11122894
0.021574294 -0.02767507 0.024681652 -0.065899275 0.017536908 -0.030582063 -0.050586406 -0.036852084
-0.055247612 0.12286048 0.05245336 -0.0504008 -0.013005612 0.021452941 -0.00019287433 0.018421223
-0.06405987 0.030286727 -0.0764262 -0.034979153 -0.047334183 -0.025848389 -0.00881001 -0.064006545
-0.016548432 -0.03813298 -0.08055215 0.03406891 -0.080020584 -0.010681249 0.028722767 -0.03416652
0.02530948 0.016154388 0.012605095 0.08676654 -0.015025123 0.0035725634 -0.07448447 -0.118344665
-0.075257055 -0.037124205 0.077398315 -0.08644171 -0.024877967 -0.041195165 -0.06033743 -0.034972742
-0.074610665 -0.05829841 0.02333755 -0.018794438 -0.014141894 -0.07966216 0.0018236585 0.04377585
0.00095379364 -0.09525929 -0.059232872 -0.05782904 -0.009645191 -0.04829159 0.00905176 -0.05744302
0.037015576 0.053466663 0.015626464 -0.01818873 -0.053146996 0.008206259 0.007906393 -0.029032173
-0.027488708 0.041582994 -0.07284927 0.007349778 -0.025115227 0.099735655 -0.07867271 0.035091165
0.049877677 -0.00786572 0.05321539 -0.050259657 0.0052693044 0.011171219 0.028941097 -0.08801202
-0.006306391 0.008861437 -0.03975397 0.024385314 -0.062413957 0.05122966 -0.13912837 -0.034177594
0.076858714 -0.00073847215 -0.027674412 -0.009992229 -0.06162587 -0.050984565 0.019794794 -0.066862576
-0.021134835 0.057001658 -0.15802695 0.019394727 -0.06903612 -0.13356133 0.005217345 -0.013278932
0.016370904 -0.060398746 -0.003067487 0.055070184 0.018546078 0.0022781396 -0.16761626 -0.0012885913
-0.08505565 0.017416319 0.023227245 -0.058047 -0.08400413 0.011396577 -0.07596539 -0.1830621
-0.0061766542 -4.655111e-05 0.058730718 -0.045967054 0.038525123 -0.005922658 -0.03745222 -0.08573082
0.07225614 0.10622583 0.0183674 -0.12339875 -0.037904657 0.06320436 -0.109954074 0.020018984
0.02849166 -0.021419635 -0.13786706 -0.0040228292 -0.03885801 -0.016883733 -0.06997234 -0.08545479
0.009166306 -0.041292686 0.004815981 0.078439295 -0.003920843 -0.10062052 -0.075964764 -0.094058126
-0.1250554 0.08504378 0.05989439 0.06271743 -0.07199975 0.0029578444 -0.017487636 -0.07195945
-0.01918732 -0.12226572 0.07618554 -0.0049495813 -0.07839529 -0.03589592 0.013113598 -0.022470513
-0.057341848 0.056228757 0.08405213 -0.02828826 -0.1267804 -0.013814804 0.06393367 0.10031644
0.005880282 -0.18686923 -0.08602367 -0.1633274 -0.10952472 -0.044439834 -0.08845949 -0.06563767
-0.050061785 0.08393381 0.09728139 -0.0702966 -0.01658025 0.03358382 -0.023322318 0.012575115

net.3.bias f4 [64]
00000000: e366 273e bc58 8f3d 469e 9cbd edf4 0a3e
00000010: a93e 073e 710d cf3d 9caa 813d 3ff0 0abd
00000020: d411 873d abae 5c3d d3ad a13d 63f3 f7bc
00000030: 3edd b33d c896 b43d c037 e33d 3ce8 133e
00000040: 3a05 84bd 5e29 0a3e 0958 e43d b6ab 813d
00000050: 53d9 983d 4e9d bc3d c6d8 2a3e 217f a33d
00000060: 18d9 3b3e 4f6d 173d fe8f b83d e4c6 ff3d
00000070: 3334 c03d eb56 0c3e c754 063e 3ec2 933d
00000080: d706 af3d e143 f23d b3d1 5a3d c8c1 c83d
00000090: caa0 213d 910c 0e3e b6f0 0f3d 361a 313c
000000a0: cf02 d93d 5f5f 2e3a 794e 803d 0319 133e
000000b0: e6ea 343e 0e2f 703d 154a 113e 101b e83d
000000c0: 5645 be3a 475b 96bd 2dbe 93be 59e5 e33d
000000d0: 3477 a13d 22df 613d b621 573d d26b 223e
000000e0: d618 723d e2b9 2fbd 4caa 4f3c 66e6 aa3d
000000f0: 3ea3 0f3e 8915 eb3d cfbf c23d fc7b 1c3d
0.16347842 0.069993466 -0.07647376 0.13569994 0.13207497 0.101099856 0.06331369 -0.033920523
0.06595197 0.053877514 0.078944825 -0.030267423 0.08782433 0.08817822 0.11094618 0.14444059
-0.064463094 0.13492343 0.11149604 0.063315794 0.07463326 0.09209691 0.16684255 0.07983232
0.18344533 0.03696948 0.09011839 0.12489107 0.09384956 0.13705032 0.13118277 0.07214783
0.085462265 0.11829353 0.05342264 0.09802586 0.03945998 0.13871981 0.03514167 0.010809472
0.10596239 0.00066517846 0.062649675 0.1436501 0.17667732 0.058638625 0.14188416 0.11333287
0.0014516513 -0.073416285 -0.2885603 0.11127729 0.07884064 0.055144437 0.052522384 0.15861443
0.059105717 -0.04290188 0.012674879 0.08344726 0.14027116 0.11478717 0.09509241 0.03820418

net.6.weight f4 [1, 64]
00000000: 5780 ff3d e034 593e 814c 1e3d b668 3c3e
00000010: 5ddf 3c3e 81d3 fbbd df00 b7bd acca dc3d
00000020: 9693 323e bbb1 aa3e 53e4 d9bd c74f 7a3d
00000030: d26a 60bd 1f35 e5bd dc8b 3b3e 6cc3 bebd
00000040: 02bb 3b3c 7cbe 353e 5f01 333e b6cf bfbd
00000050: 66be e33d 913a 0b3e c7d2 973e da7f a2bd
00000060: 4433 363e 5829 d8bd 3bb2 a5bd efc6 81bd
00000070: 7561 603e 1458 19be f0b4 87bd 9795 71bd
00000080: 4d12 e2bd 2a1a c1bd 8fb3 f43c 02df f43d
00000090: fabc babd 333d 533e 2e0e a7bd 9bbf cbbd
000000a0: 1aec 353e 0363 16be f2ab 27be 2ca8 4e3e
000000b0: 886c 803e f57b a2bd cc92 a2bd 4e58 443e
000000c0: b273 c33d b90e 263e 073f 333e 89b2 7bbd
000000d0: 776d 91bd 7887 013d e10e e5bd 0aba 553e
000000e0: b1df c8bd e50a 713d 9ab1 e73d 8669 08be
000000f0: 6039 a33e 907b debd 3948 03be d534 08be
0.12475651 0.21211576 0.03864718 0.18399319 0.18444581 -0.122962005 -0.08935713 0.10780844
0.17439112 0.33338723 -0.106392525 0.061111238 -0.05478937 -0.11191773 0.18315071 -0.093146175
0.01145816 0.17748445 0.17480992 -0.093657896 0.111203 0.1359656 0.29652998 -0.07934542
0.17792994 -0.10554761 -0.080906354 -0.06336772 0.21912177 -0.14975005 -0.06626308 -0.05898055
-0.11038647 -0.094288185 0.029870776 0.11956598 -0.09118076 0.20628814 -0.081570014 -0.09948655
0.17765847 -0.14686207 -0.16374186 0.2018134 0.25082803 -0.07933799 -0.079381555 0.1917431
0.095435515 0.16216554 0.17504512 -0.06144956 -0.07100957 0.031623334 -0.111844786 0.2087175
-0.09808291 0.05884828 0.11313172 -0.13321504 0.3187971 -0.108634114 -0.1282052 -0.13301404
